project/data.pth (torch, 4714 bytes, 6 tensors)

l1.weight f4 [8, 37]
00000000: 248a cdbe c3c6 f1be aab0 e2be 1cd0 f1be
00000010: 58a2 ac3e 8bc2 bc3e af8f e6be 3ccd f1be
00000020: 821a b53e 12d2 2fbd 9b1e 893e 5d50 5c3f
00000030: 6c30 c53e 9072 443f f5fc 0d3f 9800 4dbe
00000040: c593 843e f14f cd3e 6260 553e 0de7 803e
00000050: d1e3 ecbe bee6 dfbe b10a d43e aea1 ae3e
00000060: 5f99 973f 18bb 8ebe 27c9 36be 5f0a c63e
00000070: 75cc f1be 6e79 003f aaf6 23be e8bd 103f
00000080: 370f 243f 643d ed3e 8d2f fe3e 990f d53e
00000090: 0616 e8b8 ea74 cabe 416d cabe da7c cabe
000000a0: 5878 cabe 880b 123e d660 e53e df82 c9be
000000b0: b350 cabe 3711 483e 0a85 9a3e cfb3 0a3d
000000c0: 3e73 9bbe af7b 0a3f b0a0 0a3f 74e1 833e
000000d0: 1496 9e3e 2540 fb3e 1a06 e03e e325 b33e
000000e0: 38fc ef3e 1473 cabe 746b cabe d293 853e
000000f0: 00c1 b43e 1147 82bd 1471 a63d 746c ce3d
00000100: 7f48 7c3e 0cd1 933f e7e1 e53d 3fce 243e
00000110: 1acb 423e a2f7 89be d010 7f3e ddde 5f3e
00000120: 0116 b03e 05fc 2a3f 606d 71be e3e6 08be
00000130: df27 a5bd 8f95 0fbe 9920 743d 949b 333e
00000140: d3e9 19bd 971a aebd 72e6 563d 6060 d13e
00000150: a96a 18be bb68 0b3f ea5d fd3e 5c48 0a3f
00000160: e90d fa3e 06ff 793e 7e96 f93e 259f f43e
00000170: 05d3 c6bd 8e64 db3e 331a 33be d649 38be
00000180: 1457 833e 40d9 043f 7400 2cbf 009a b63e
00000190: f184 e23e 458d 84bd 1efa 1f3e c6cd 31be
000001a0: ac1a ad3e 1aba 4abd 6cf0 ac3e a33d 6a3e
000001b0: 8644 dd3e 82ab 9a3e 43b9 b53e 9718 f8be
000001c0: 08da f7be bf1a f8be c706 f8be a6bd ef3e
000001d0: eed3 1fbe 6a10 f8be e0fc f7be 5033 363e
000001e0: a121 f8be 1247 0b3f e3ae 303f 3dce a13d
000001f0: 223b 88be 436b 18be a10d f8be db98 763c
00000200: 8e68 263d 4882 de3e 1c54 2abe 972a f3be
00000210: 252a f8be 4ffd 8fbd d3d0 3abd 4654 563f
00000220: 2e17 f8be b91c f8be dbfd a13e 49e5 e33e
00000230: 9821 903e 4015 f8be 245d f43e 9c00 393f
00000240: 66ae c4bd 70c8 e0bd e045 58be 7a70 25be
00000250: f491 ca3e f2cb 533e 5987 5d3e bbc3 d53d
00000260: 0284 263c d67c 0abe 1dfa b13e 2b57 e13d
00000270: 9d69 ffbd 0989 313f 5c74 58be 3a5b d4be
00000280: c8a5 90be 2870 9dbe 7082 9bbe ebe6 173f
00000290: 8b3d 9dbe c449 09be 1d41 1bbe 3ebe 0cbe
000002a0: adbf 8b3e 9dbb 013e 44d3 08be c5a1 22be
000002b0: 80f2 e1be 625f 0d3f 4667 0f3f 61ca d0bd
000002c0: 41d5 e1be 50c4 eb3d f9cb 2c3f 3823 a93d
000002d0: 99d3 e1be adc8 08be 19e1 08be 20ad 1dbe
000002e0: 9b53 1bbd 3cbf d7be 92bc d7be 1cbb d7be
000002f0: 44c3 d7be b607 7f3e b879 9a3e 87bb d7be
00000300: 76c6 d7be 079d 533e 9488 083f e41e 8f3e
00000310: 0fcc d2be 1d6b db3e fd57 043f 666c 543e
00000320: 5f4f f73e 0821 ec3e 3993 7b3e 16ef 3d3e
00000330: 12d8 bb3e acb6 cfbe 1ac2 d7be 402d 793e
00000340: f1d9 ce3e 6be9 9e3e 3544 243f 5260 303f
00000350: bcda 293d b397 ffbd 634d 443e 917e 343f
00000360: 6c61 9f3e b0bd d7be ed5a d13e b7db a13e
00000370: da35 aa3e 8a0e 2abe 154c 0d3f 23e4 073f
00000380: b96f 2a3f 541d 2f3f 2759 01be 3974 e6be
00000390: dae0 343f b7b9 3b3f dcc8 d13d 481f 143f
000003a0: 254f 9c3c bf77 163f 2047 a9be 98ab fabe
000003b0: 867c f2be ad8a e83e 47b8 b8be 77bf 02bf
000003c0: f56b 8a3c 094e eebe eb24 2d3f 3e52 273f
000003d0: 1522 9fbe 5802 a9be a2a3 3ebf a317 a93e
000003e0: f68c 0d3f 62a0 fbbd ff8d 3bbf f95a f7bc
000003f0: 2185 f03e 4cd3 15be a882 f03e bef3 bdbe
-0.40144455 -0.47221956 -0.4427541 -0.47229087 0.33717608 0.36867175 -0.45031497 -0.47226894
0.35371786 -0.042924948 0.26781163 0.86060125 0.38513505 0.7673731 0.55464107 -0.20019758
0.2589399 0.40100053 0.20837548 0.25176278 -0.4626756 -0.4373073 0.41414407 0.34107727
1.184368 -0.27877116 -0.17850171 0.38679788 -0.472263 0.50185287 -0.16012064 0.56539774
0.64085716 0.463359 0.49645653 0.41613463 -0.00011066724 -0.39542323 -0.3953648 -0.3954838
-0.3954494 0.14262211 0.44800442 -0.3935766 -0.39514694 0.19537817 0.30179626 0.033862885
-0.3036136 0.54094976 0.5415144 0.25757945 0.30973876 0.49072376 0.43754655 0.34989843
0.46872115 -0.39540923 -0.39535105 0.2608934 0.35303497 -0.06361211 0.08127037 0.100792795
0.2463703 1.1548171 0.11224728 0.16094302 0.1902279 -0.2694674 0.24908757 0.2186236
0.34391788 0.667908 -0.2357688 -0.13369326 -0.080642454 -0.14021896 0.0596014 0.17539817
-0.037576508 -0.08501165 0.052465864 0.4089384 -0.14884438 0.5445668 0.49485713 0.5401666
0.48838738 0.2441369 0.4874763 0.47777668 -0.097082175 0.42850155 -0.17490463 -0.17996916
0.25652373 0.51894 -0.6718819 0.35664368 0.4424205 -0.064722575 0.15622756 -0.17363653
0.33809412 -0.049493887 0.33777177 0.22875075 0.43216342 0.30208975 0.35492906 -0.4845626
-0.48408532 -0.48457906 -0.4844267 0.46824378 -0.15608189 -0.48450023 -0.48435116 0.17793012
-0.48463157 0.5440532 0.69016856 0.07900665 -0.26607615 -0.14884667 -0.48447898 0.015051092
0.040627055 0.43458772 -0.16633648 -0.4749343 -0.48469654 -0.07030737 -0.045609307 0.8372234
-0.48455185 -0.48459414 0.3163899 0.44510868 0.2815063 -0.48453712 0.4772731 0.72266555
-0.09603576 -0.109757304 -0.21120405 -0.16156188 0.39564478 0.20683268 0.21633662 0.10437723
0.010163309 -0.13524184 0.34761134 0.11002954 -0.12471316 0.69349724 -0.21138138 -0.4147585
-0.2825148 -0.3074963 -0.30372953 0.5933673 -0.30711016 -0.13407046 -0.15161557 -0.13744447
0.27294675 0.12669225 -0.13361841 -0.15882023 -0.44130325 0.5522367 0.5601696 -0.10194851
-0.44108012 0.11512053 0.6749874 0.082586706 -0.4410675 -0.13357802 -0.13367118 -0.15398073
-0.03792153 -0.42138088 -0.42136055 -0.4213494 -0.42141163 0.24905285 0.3017099 -0.4213526
-0.421436 0.2066537 0.533334 0.27953255 -0.4117131 0.42855158 0.5169676 0.20744476
0.48302743 0.4611895 0.2456788 0.18548235 0.36688286 -0.40569055 -0.42140275 0.24333668
0.4040065 0.3103746 0.64166576 0.68896973 0.041468367 -0.12480106 0.19170146 0.70505625
0.31129014 -0.42136908 0.40889683 0.31612942 0.3324421 -0.16607109 0.55194217 0.53082484
0.66576725 0.68404126 -0.12631665 -0.45010546 0.70655596 0.73330253 0.10243389 0.5786023
0.019080708 0.5877647 -0.33062077 -0.4895904 -0.4736063 0.454183 -0.36078092 -0.510734
0.016897181 -0.4654391 0.6763446 0.65359867 -0.3108069 -0.330096 -0.74468434 0.33025846
0.55293214 -0.1228645 -0.73263544 -0.030194746 0.4697657 -0.14631385 0.46974683 -0.37100023

l1.bias f4 [8]
00000000: c0c5 f13e 4273 ca3e 599b 4e3f 5d0d f83e
00000010: 68d8 e13e 3ec0 d73e b361 703f 19de 153f
0.47221184 0.3954106 0.8070579 0.48447695 0.44110417 0.42138857 0.9389908 0.5854202

l2.weight f4 [8, 8]
00000000: 037a d8be 0d63 c23f 3641 a43f 55a7 05bf
00000010: 697d b5be cde5 743f 9b6d c6be 0efb 9dbe
00000020: 5378 373e 9f07 adbd d980 963f 36d2 0dbf
00000030: 39df a43f 9e7d 543f 4f9c 8a3f 71ee 6bbf
00000040: 90aa 6f3f a7a5 1a3f 2f12 4d3f 1f44 5ebe
00000050: a6e4 74bf da73 893f d81b 99be fe3c 89bf
00000060: 9969 c83d f830 91be 6e46 21be 0d29 adbe
00000070: 9c45 9e3d 0df5 11bb c1bb 85be 9a14 5e3e
00000080: 85e5 c53f a1a8 693f 1fae 273f 75d0 b13f
00000090: 8a6a c8bf f7d0 233f bb1b 0abf 0215 993f
000000a0: af9f 0abf 90cc 18be 7a36 043f 9eff 7fbf
000000b0: 6bd1 db3f 50e4 583f 71bf 803f ee39 35bf
000000c0: 039a dfbc 8a21 b6bf ca3b d63e d3e2 ecbe
000000d0: 55e3 533d c523 b9bf c532 a33f e55b 893f
000000e0: 58c6 5abf 67ea 273e 3209 433f e0e1 503e
000000f0: 3077 8abf 568e 8fbf 6310 293f 02ad 963f
-0.42280588 1.5186478 1.2832401 -0.52208453 -0.35447243 0.9566315 -0.38755497 -0.30855602
0.17916994 -0.08448719 1.1758071 -0.5539888 1.2880622 0.83004177 1.0828952 -0.9216071
0.9361963 0.60409015 0.8010587 -0.21705674 -0.9566139 1.073848 -0.29904056 -1.0721738
0.09785766 -0.28357673 -0.15749523 -0.33820382 0.07728121 -0.0022271306 -0.26119807 0.21687546
1.5460669 0.9127293 0.6550006 1.3891741 -1.5657513 0.6399073 -0.53948563 1.1959536
-0.5414991 -0.14921784 0.51645625 -0.99999416 1.7173284 0.8472338 1.0058423 -0.7079152
-0.027295118 -1.4228985 0.4184249 -0.46266803 0.051730473 -1.4464041 1.2749869 1.0731169
-0.854589 0.16398011 0.76185906 0.20398664 -1.0817623 -1.1215312 0.6604063 1.1771548

l2.bias f4 [8]
00000000: 4cd1 c73e 2785 c63e 3536 803d e7a8 76be
00000010: 2fae ba3e 7421 413f a973 553f 2da2 073f
0.39026868 0.38773462 0.06260339 -0.24087869 0.36461017 0.7544167 0.8337961 0.52981836

l3.weight f4 [6, 8]
00000000: 426b 9abf ff4b 43bf f5ae af3d f2aa 6dbe
00000010: b5c4 723f 128e 35bf 2bea 52bf 1fe5 c2bf
00000020: 1ca3 99bf 390d 15be 63fe a7bf 8133 783e
00000030: b1ae 893e a7e2 92bf 4d67 1c3f b3b1 f73e
00000040: eaf6 363f 4562 1b3c 9f27 483f 6058 67bd
00000050: 6c77 93bd ff9f c5be a268 5ebf cc99 9bbf
00000060: 7e23 46bf 00c1 693d 6ee2 4cbf 0f0d 1a3e
00000070: 5cdb c1bf f7e8 c13e 0b17 8d3f 22d9 f43e
00000080: 07bb 873e 6d44 4f3f 5ee9 38be 5b68 b3be
00000090: 25d7 99bf 9bb5 473f fee6 fbbe a1b1 d0bf
000000a0: fc6b 3f3f 7e62 70bf abad 8dbf 2622 7cbe
000000b0: 5d86 313e a390 32bf 0295 51bf 4f05 f43e
-1.2063982 -0.76287836 0.08578292 -0.23209742 0.948314 -0.7091991 -0.8238856 -1.5226172
-1.2002902 -0.14555825 -1.3124508 0.24238397 0.2689109 -1.1475419 0.61095124 0.4837776
0.7147051 0.0094838785 0.78185457 -0.056480765 -0.07200512 -0.3859863 -0.86878407 -1.215631
-0.77397907 0.057068825 -0.80033004 0.15044044 -1.5145068 0.3787305 1.1022657 0.4782191
0.26509878 0.80963784 -0.18057773 -0.35040554 -1.2018782 0.7801148 -0.4919967 -1.6304208
0.74774146 -0.9390029 -1.1068624 -0.24622402 0.17336412 -0.6975195 -0.8186799 0.476603

l3.bias f4 [6]
00000000: 5241 123e e4af 8cbe 76ad 4dbe 28b0 a93e
00000010: e0fe 7bbc 2b8a 5a3e
0.1428273 -0.27477944 -0.20085701 0.3314221 -0.015380591 0.2134177
